discriminator_params.pth (torch, 429021 bytes, 25 tensors)

conv_blocks.0.weight f4 [16, 1, 3, 3]
-0.04553495 -0.0010758999 -0.0018883122 -0.113667235 0.04530034 -0.0019184063 -0.4546033 -0.14526387
0.026174527 0.4574839 -0.019522801 0.038350344 -0.9137025 0.047252912 -0.053293094 0.52682066
-0.036359835 0.0065142177 0.12257711 5.3813983e-06 0.22669573 0.23155347 0.14060977 -0.4411478
-0.3262053 0.0040541748 0.20661372 0.42352656 0.36188453 -0.49334845 -0.3332456 0.09606265
0.15653874 0.28985667 -0.093737744 -0.02985281 0.20513852 0.03260819 0.000802347 -0.8460543
-0.008362834 0.032386757 0.84834635 0.094804905 -0.16535677 0.06138122 -0.0726543 -0.015105663
-0.021298291 -0.28410757 -0.13037434 0.007897294 -0.063426025 -0.043720424 -0.03868294 0.13578476
-0.48214027 -0.19185838 1.0461967 -0.083607726 -0.41061342 0.007174543 -0.17686844 -0.54493624
0.028201316 -0.09108331 1.0766014 -0.06918326 0.13306648 -0.55212575 0.023496484 -0.010025001
-0.121808104 0.017299125 0.06982781 0.32330197 -0.044480305 0.4001396 -0.12391141 0.014418698
0.08368019 -0.074020624 0.008043134 0.038804166 -0.15856974 0.15809001 0.18818526 -0.4541593
-0.018799538 -0.041643385 -0.47917864 -0.19856529 -0.4588687 -0.30171877 0.031011274 -0.089866355
0.3407426 0.020631265 0.18934621 -0.18483905 -0.008052861 -0.018486677 -0.5962576 -0.10378469
-0.21524324 -0.02999511 0.10856888 0.29691473 -0.18160859 0.027352778 -0.021666074 0.40894622
0.21639961 0.33613798 -0.1659922 -0.103310496 -0.5855367 -0.09424939 0.006443846 0.030257247
-0.21967034 0.020378662 0.014973484 -0.33665594 -0.076062515 0.0013729468 0.20207173 0.072822034
0.26216573 -0.12022045 0.048912708 -0.029019572 -0.44552863 -0.18341589 -0.42416906 0.22484832
0.19135727 0.28213724 -0.7479032 -0.67778033 -0.33464876 0.022974389 0.11425402 0.15952818
00000000: db82 3abd 3605 8dba 3e81 f7ba 5eca e8bd
00000010: d98c 393d 0973 fbba c4c1 e8be 0dc0 14be
00000020: f66b d63c 543b ea3e 48ee 9fbc 4015 1d3d
00000030: 68e8 69bf 458c 413d dc49 5abd b8dd 063f
00000040: 0dee 14bd 3875 d53b b509 fb3d dc91 b436
00000050: ed22 683e 5a1c 6d3e 02fc 0f3e 20de e1be
00000060: 6204 a7be e2d8 843b 8c92 533e 79d8 d83e
00000070: ee48 b93e 2b98 fcbe 2b9f aabe 7fbc c43d
00000080: b14b 203e 1868 943e 93f9 bfbd e18d f4bc
00000090: d50f 523e 2a90 053d 9954 523a 0497 58bf
000000a0: 4504 09bc faa7 043d 3a2d 593f 1329 c23d
000000b0: 4953 29be e06a 7b3d c7cb 94bd be7d 77bc
000000c0: c179 aebc 8c76 91be da80 05be a763 013c
000000d0: 81e5 81bd 3014 33bd 0172 1ebd 290b 0b3e
000000e0: 17db f6be 8676 44be c6e9 853f 873a abbd
000000f0: ec3b d2be 6e18 eb3b 001d 35be f180 0bbf
00000100: 7206 e73c e389 babd 13ce 893f f4af 8dbd
00000110: 9442 083e 1d58 0dbf b37b c03c e73f 24bc
00000120: 8776 f9bd e5b6 8d3c e201 8f3d d687 a53e
00000130: fb30 36bd 19df cc3e 44c5 fdbd 673c 6c3c
00000140: 8560 ab3d 2098 97bd 59c7 033c 1ef1 1e3d
00000150: 1b60 22be 59e2 213e a3b3 403e 9187 e8be
00000160: 7d01 9abc 4192 2abd e756 f5be b354 4bbe
00000170: d7f0 eabe e27a 9abe 5b0b fe3c da0b b8bd
00000180: d075 ae3e e602 a93c f9e3 413e 7346 3dbe
00000190: 26f0 03bc 5f71 97bc 57a4 18bf 118d d4bd
000001a0: b968 5cbe 4eb8 f5bc 5c59 de3d 3505 983e
000001b0: 9af7 39be ef12 e03c 0d7d b1bc 6661 d13e
000001c0: dc97 5d3e 471a ac3e dcf9 29be 7494 d3bd
000001d0: bce5 15bf d305 c1bd e626 d33b 0cde f73c
000001e0: 43f1 60be 27f1 a63c 5853 753c 2b5e acbe
000001f0: aac6 9bbd 73f4 b33a e4eb 4e3e b823 953d
00000200: 963a 863e 2436 f6bd b158 483d 74ba edbc
00000210: 541c e4be 60d1 3bbe b02c d9be a33e 663e
00000220: 29f3 433e 4b74 903e 9676 3fbf 0383 2dbf
00000230: 1557 abbe c934 bc3c 03fe e93d 5b5b 233e

conv_blocks.0.bias f4 [16]
-0.6251687 -0.08068127 0.13737668 0.010600267 -0.04741495 -0.52077097 -0.23291114 -0.06259116
-0.17809734 -0.31978995 -0.75259775 -0.6139409 -0.15854657 -0.59011763 -0.4813978 -0.71189594
00000000: 0e0b 20bf 393c a5bd 79ac 0c3e beac 2d3c
00000010: 2e36 42bd 3f51 05bf 4280 6ebe cb2f 80bd
00000020: 265f 36be 82bb a3be 3faa 40bf 3b2b 1dbf
00000030: 085a 22be f311 17bf c679 f6be d03e 36bf

conv_blocks.3.weight f4 [32, 16, 3, 3]
0.6263947 0.50824016 -0.18517217 0.00069635577 0.4999131 0.033285145 -0.3164487 0.28246087
0.060983177 -0.20108283 -0.00057867053 -0.54812133 -0.16576786 0.1175735 0.02663552 0.08378237
0.08664668 -0.26039132 -0.19967388 -0.25254086 0.001354238 -0.27348316 -0.42165127 -0.035783894
0.025045963 -0.49184668 0.050300095 0.03825704 0.01360906 0.01335511 -0.052593894 -0.10386402
0.21292165 -0.04586425 -0.14238133 0.2149525 -0.13337126 0.22680941 -0.005951756 -0.08446786
-0.0074631837 -0.016389722 0.07611641 -0.01210325 -0.008495723 0.7164515 0.8079565 -0.5525956
0.4605714 -0.011222178 0.11007238 -0.2515996 0.07294976 0.15663253 -0.060367044 -0.120075986
0.07879583 0.022317287 -0.046510268 0.059854396 -0.113559745 -0.23291698 -0.11890244 -0.5116091
0.19723725 -0.34800947 -0.23873916 -0.09318052 0.16882025 0.41418555 -0.018058464 0.24494168
0.017505761 0.09510593 -0.070684314 0.14222078 0.15453492 -0.0014968995 -0.060964726 -0.14909717
-0.21502878 0.1790313 0.030507335 0.153988 -0.19426692 0.21431509 0.060308035 -0.16176516
-0.052128606 -0.17440872 -0.14167331 -0.051827796 -0.031073293 -0.09782766 0.0866452 0.0697629
0.037916448 0.1789468 -0.027786762 0.057312664 -0.04360072 0.087993406 0.09611805 -0.10681466
0.19767885 -0.008189303 -0.0146102905 -0.102968276 0.03578156 -0.09947688 -0.08182556 -0.1311756
-0.11311248 -0.124212794 -0.23483506 -0.23189971 0.06603826 0.49367994 0.2357086 -0.23829482
-0.002811683 0.66833204 0.15073223 -0.547369 0.15651394 0.13359381 -0.3012195 0.21998926
-0.022662701 -0.36189204 0.341346 0.073803976 -0.09262605 0.094677724 -0.07607541 0.30983135
0.1392019 -0.008716365 -0.14408831 0.26816213 -0.15546863 -0.35170034 0.42108816 0.12980321
0.13794574 -0.33321807 -0.313999 0.18857725 0.51069164 0.234557 -0.328896 -0.05008185
0.11349089 -0.2311521 0.25999394 -0.49225453 0.24575481 -0.017243443 -0.035576843 0.10006127
-0.13984013 -0.10965597 -0.036018703 0.08056397 0.09464382 -0.16675918 0.04250941 0.24548092
-0.047434222 -0.3518844 -0.0829893 -0.12396342 0.23741549 0.15053107 -0.38412744 -0.11079054
-0.033987373 -0.59542495 -0.2128938 -0.21588713 -0.14736007 -0.00451665 -0.06908991 -0.3138274
-0.28249392 -0.013989658 0.10818972 0.080147795 -0.036673877 -0.06659999 -0.22855169 -0.16486312
0.005708898 0.1979866 0.0070032133 -0.073516704 0.19003226 0.07993779 0.14925475 0.0937408
0.025345396 0.2400254 0.1439796 -0.005520392 -0.034925923 -0.3079824 -0.114214696 0.05688502
0.0059088133 -0.07396434 0.3951139 0.25278705 0.26122156 0.53742075 -0.12992708 -0.0043968675
-0.19405708 -0.025443235 0.16278261 -0.17668732 -0.0818119 -0.049309347 -0.021644628 0.071956925
-0.02277142 0.1822946 -0.058328718 -0.14730926 0.18763365 0.2856545 0.06368342 -0.277022
-0.17266056 -0.1288218 -0.016916249 -0.07691012 0.11121276 0.0593631 -0.0066491207 -0.13067761
-0.18523599 -0.0011887761 0.024198407 -0.08981762 -0.11539998 -0.038327217 0.14552592 -0.045917805
-0.05076907 -0.05932413 0.18002132 0.039870046 -0.20059113 0.23221463 0.02945418 -0.219275
00000000: 675b 203f 071c 023f c69d 3dbe a58b 363a
00000010: 9cf4 ff3e 0156 083d 9005 a2be b69e 903e
00000020: 7fc9 793d a8e8 4dbe ecb1 17ba ae51 0cbf
00000030: 0dbf 29be 60ca f03d bc32 da3c 1796 ab3d
00000040: d173 b13d 0352 85be 4f77 4cbe 094d 81be
00000050: b080 b13a fc05 8cbe ade2 d7be 2292 12bd
00000060: 312d cd3c 54d3 fbbe 7907 4e3d 6ab3 1c3d
00000070: 89f8 5e3c 64cf 5a3c b26c 57bd a9b6 d4bd
00000080: 2208 5a3e 27dc 3bbd 69cc 11be 821c 5c3e
00000090: 7a92 08be ba40 683e f306 c3bb 7cfd acbd
000000a0: b98d f4bb bd43 86bc ece2 9b3d b64c 46bc
000000b0: a531 0bbc 5e69 373f 3dd6 4e3f e876 0dbf
000000c0: 04d0 eb3e 3add 37bc a16d e13d aad1 80be
000000d0: af66 953d 4764 203e 6f43 77bd 66ea f5bd
000000e0: b55f a13d bed2 b63c 8d81 3ebd e229 753d
000000f0: 0392 e8bd ca81 6ebe 1f83 f3bd d0f8 02bf
00000100: 90f8 493e 4c2e b2be 0a78 74be 6ed5 bebd
00000110: 37df 2c3e 2110 d43e 58ef 93bc fed1 7a3e
00000120: 3e68 8f3c e6c6 c23d f0c2 90bd 53a2 113e
00000130: 673e 1e3e 9d33 c4ba 26b6 79bd eeac 18be
00000140: 8130 5cbe fb53 373e 85ea f93c 08af 1d3e
00000150: e8ed 46be 6a75 5b3e 8f05 773d c4a5 25be
00000160: ce84 55bd 3398 32be cf12 11be 6249 54bd
00000170: 6b8d febc de59 c8bd 0a73 b13d dadf 8e3d
00000180: 474e 1b3d d43d 373e 10a1 e3bc afc0 6a3d
00000190: ab96 32bd e335 b43d 8ad9 c43d a5c1 dabd
000001a0: 536c 4a3e 6d2c 06bc 0060 6fbc 08e1 d2bd
000001b0: af8f 123d 89ba cbbd 2994 a7bd e652 06be
000001c0: 84a7 e7bd 4763 febd 9a78 70be 1e77 6dbe
000001d0: 113f 873d 9ec3 fc3e 985d 713e 8f03 74be
000001e0: 3744 38bb cf17 2b3f 8d59 1a3e 6020 0cbf
000001f0: 3145 203e d1cc 083e 7139 9abe dd44 613e
00000200: 21a7 b9bc ea49 b9be e7c4 ae3e 8a26 973d
00000210: bab2 bdbd 65e6 c13d 6dcd 9bbd 37a2 9e3e
00000220: f18a 0e3e 16cf 0ebc e38b 13be 8c4c 893e
00000230: 2b33 1fbe 1112 b4be de98 d73e 22eb 043e
00000240: a641 0d3e 8f9b aabe 7ac4 a0be 651a 413e
00000250: b0bc 023f b62f 703e 0e65 a8be a022 4dbd
00000260: e96d e83d 23b3 6cbe ed1d 853e c908 fcbe
00000270: 26a7 7b3e 1f42 8dbc 06b9 11bd ecec cc3d
00000280: 4032 0fbe 4f93 e0bd 5988 13bd b9fe a43d
00000290: 9ed4 c13d ebc2 2abe 591e 2e3d 5a5f 7b3e
000002a0: 634a 42bd 312a b4be 4bf6 a9bd 89e0 fdbd
000002b0: 0c1d 733e d124 1a3e 5aac c4be 27e6 e2bd
000002c0: 5836 0bbd c56d 18bf d500 5abe 8411 5dbe
000002d0: 8fe5 16be 6800 94bb 037f 8dbd fcad a0be
000002e0: 0ba3 90be e134 65bc 9292 dd3d 8724 a43d
000002f0: 5937 16bd 9365 88bd 7409 6abe e1d1 28be
00000300: b511 bb3b 00bd 4a3e 367b e53b ed8f 96bd
00000310: d197 423e 6db6 a33d 3dd6 183e 2dfb bf3d
00000320: 26a1 cf3c 38c9 753e 636f 133e 68e4 b4bb
00000330: 7c0e 0fbd deaf 9dbe 65e9 e9bd 4400 693d
00000340: b89e c13b 9e7a 97bd 5e4c ca3e 4e6d 813e
00000350: d5be 853e 6894 093f 9b0b 05be 9913 90bb
00000360: e6b6 46be 556e d0bc 7cb0 263e 85ed 34be
00000370: ff8c a7bd 99f8 49bd 1350 b1bc 275e 933d
00000380: 218b babc 70ab 3a3e 18ea 6ebd 3dd8 16be
00000390: 0923 403e 4e41 923e 746c 823d d4d5 8dbe
000003a0: eecd 30be dde9 03be f293 8abc 0e83 9dbd
000003b0: 84c3 e33d b926 733d dee0 d9bb 5ad0 05be
000003c0: 81ae 3dbe b5d0 9bba bd3b c63c 4df2 b7bd
000003d0: d356 ecbd 00fd 1cbd bf04 153e 4f14 3cbd
000003e0: 3af3 4fbd dcfd 72bd 8257 383e c64e 233d
000003f0: c367 4dbe acc9 6d3e e449 f13c a089 60be

conv_blocks.3.bias f4 [32]
-0.052874483 -0.15711634 -0.027030015 -0.5094156 -0.10011364 -0.0840391 0.21842429 -0.019764742
-0.13470559 -0.12309764 -0.12490547 -0.19769362 -0.12955147 -0.11468764 -0.11437927 -0.15193321
-0.16547836 -0.3172231 -0.18778583 -0.16198173 -0.22873338 -0.22817071 -0.05021326 -0.07766756
-0.14684926 -0.14062853 -0.19322266 -0.08439936 -0.08096124 -0.40952817 -0.29725596 -0.19111271
00000000: ea92 58bd 1be3 20be 0d6e ddbc 1069 02bf
00000010: 6108 cdbd b11c acbd 9eaa 5f3e abe9 a1bc
00000020: 43f0 09be 9e1a fcbd 70ce ffbd 3270 4abe
00000030: 24a9 04be 5ae1 eabd ae3f eabd 6194 1bbe
00000040: 2973 29be 116b a2be ee4a 40be 8ade 25be
00000050: 1539 6abe 95a5 69be 6bac 4dbd 2b10 9fbd
00000060: a75f 16be ed00 10be 29dc 45be 92d9 acbd
00000070: 02cf a5bd adad d1be ef31 98be 0db3 43be

conv_blocks.6.weight f4 [32]
0.87424415 1.456152 1.1678998 0.8698558 1.233199 0.9559449 0.6930357 1.1975459
1.1526723 0.7224962 1.0266742 1.5267539 1.3663028 1.0912282 1.1067885 1.2295673
0.9843948 0.76641107 1.3296139 1.1069589 0.94357693 1.0285448 1.0634093 0.7840015
0.9708224 1.1222 0.94497645 1.0415368 1.7836587 1.0524002 0.806724 1.3838458
00000000: 77ce 5f3f 3063 ba3f be7d 953f dfae 5e3f
00000010: 77d9 9d3f ceb8 743f ca6a 313f 2f49 993f
00000020: c48a 933f 83f5 383f 0f6a 833f ac6c c33f
00000030: 03e3 ae3f 5ead 8b3f 3fab 8d3f 7662 9d3f
00000040: 4c01 7c3f 8433 443f ca30 aa3f d4b0 8d3f
00000050: 428e 713f 5ba7 833f cc1d 883f 53b4 483f
00000060: d187 783f 40a4 8f3f fae9 713f 1451 853f
00000070: ee4e e43f 0db5 863f 7785 4e3f dc21 b13f

conv_blocks.6.bias f4 [32]
0.21301022 0.10673951 -0.049190205 -0.061415423 0.01741092 -0.25542727 -0.07215178 0.11856385
0.11622377 -0.009686098 -0.096798405 0.026271658 0.00780179 0.057489507 -0.07579169 0.047928777
0.038736835 -0.1014395 0.013467317 -0.07917778 0.11319585 0.008577036 0.045485657 0.12784499
0.009313829 0.0561832 0.06938631 -0.010595384 0.16534026 -0.3028244 -0.2203411 -0.052528407
00000000: 5a1f 5a3e 3f9a da3d ab7b 49bd bd8e 7bbd
00000010: 58a1 8e3c 5dc7 82be 50c4 93bd 9bd1 f23d
00000020: ba06 ee3d 71b2 1ebc 3e3e c6bd a937 d73c
00000030: 28a6 ff3b 1e7a 6b3d ac38 9bbd f750 443d
00000040: 84aa 1e3d 83bf cfbd 06a6 5c3c f627 a2bd
00000050: 3ad3 e73d b286 0c3c 2b4f 3a3d cce9 023e
00000060: 0899 183c 5b20 663d 691a 8e3d 4398 2dbc
00000070: f54e 293e cd0b 9bbe 19a1 61be 0728 57bd

conv_blocks.6.running_mean f4 [32]
0.07933453 0.01810493 0.029660737 0.025311615 -0.034292433 0.037737243 0.2541408 0.13928658
0.051044177 0.15590654 -0.014195714 -0.0082687745 0.026602946 0.10684635 0.087154254 0.008541934
0.027115917 0.0030129228 0.021023434 0.05073739 0.15790938 -0.05981099 0.06010843 0.11687756
-0.021516664 0.0054098167 0.036645513 0.0924097 0.1404761 0.07176795 0.14732331 0.021037892
00000000: 247a a23d ca50 943c 13fb f23c 4e5a cf3c
00000010: 3976 0cbd 5e92 1a3d be1e 823e 24a1 0e3e
00000020: b313 513d f7a5 1f3e 2495 68bc c179 07bc
00000030: 6cee d93c 42d2 da3d ee7d b23d 78f3 0b3c
00000040: 3322 de3c 7574 453b 5639 ac3c 02d2 4f3d
00000050: ffb2 213e 5efc 74bd 4234 763d 815d ef3d
00000060: b743 b0bc d544 b13b 9b19 163d 4c41 bd3d
00000070: f7d8 0f3e 13fb 923d ecdb 163e a857 ac3c

conv_blocks.6.running_var f4 [32]
0.07573078 0.03546349 0.08073607 0.33956283 0.06800568 0.0823323 0.28133214 0.11377235
0.15003936 0.14234932 0.04977405 0.060037848 0.052536637 0.08953639 0.18871136 0.0971362
0.14221767 0.035443358 0.053398 0.07040875 0.12325827 0.08689187 0.054905385 0.13232091
0.05905958 0.118753694 0.07803876 0.06698833 0.2522266 0.19631718 0.20575036 0.15041982
00000000: bd18 9b3d 2a42 113d f458 a53d 2edb ad3e
00000010: 9046 8b3d d69d a83d c40a 903e 7a01 e93d
00000020: eba3 193e 05c4 113e e0df 4b3d 3fea 753d
00000030: a830 573d db5e b73d 8d3d 413e 58ef c63d
00000040: 82a1 113e 0e2d 113d dcb7 5a3d 7632 903d
00000050: d56e fc3d 5df4 b13d 78e4 603d 227f 073e
00000060: 75e8 713d 2335 f33d c9d2 9f3d 2d31 893d
00000070: d823 813e 5f07 493e 39b0 523e a707 1a3e

conv_blocks.7.weight f4 [64, 32, 3, 3]
-0.21036354 -0.28048006 0.055134885 0.009786252 -0.33485702 0.3770419 -0.045934282 -0.02292786
0.17754836 0.3104274 0.104494214 0.040794253 -0.11959774 -0.17949453 -0.32869813 0.09083676
-0.37139276 0.20903361 -0.2710365 -0.0064280876 -0.053845428 -0.09469238 0.29007545 -0.06749437
0.11704687 0.142376 -0.32655722 -0.18806198 0.004959451 0.01899679 -0.017027553 0.2762959
-0.29104793 0.18772745 0.33820486 -0.06365481 -0.16372745 0.26618895 0.02954719 -0.1929165
0.05400414 -0.33631757 0.2240525 -0.24370456 0.048394956 0.11019319 -0.33580464 -0.32503358
0.11017717 -0.2963077 -0.015727693 -0.039717916 -0.043675583 -0.07171499 -0.053049665 -0.024590885
-0.18084018 0.013625789 0.07310676 0.15313926 -0.12927951 0.106847614 0.21797417 -0.010628716
-0.009183957 0.11390299 -0.20624478 -0.00034605613 0.021194912 0.030293444 0.096437536 -0.17207162
0.1011 -0.22195819 0.20958236 -0.11690181 -0.028874233 -0.20458843 -0.13949957 -0.17698629
0.0003567922 -0.07601237 -0.08880425 0.21405597 -0.122890756 0.036545686 -0.012192282 0.0018627325
0.22700249 -0.1897694 0.042479806 -0.14470644 0.32543766 0.15632038 0.15605038 -0.15018882
0.08893651 0.017318347 0.12248454 0.18256731 -0.054665815 -0.023206465 0.008946388 -0.23788087
-0.23997878 -0.13886012 -0.4331722 -0.19346012 -0.21539074 -0.18375838 0.087149315 0.17957155
-0.02144752 0.07557474 -0.025663026 0.31150892 -0.23238271 0.06315773 -0.1977531 0.20121099
-0.28045526 0.07488527 0.24457203 -0.2661136 0.3202938 -0.34632123 -0.05729823 -0.16922504
-0.21704955 0.097029485 -0.11427338 -0.32393762 -0.061677296 0.20853385 -0.0025671022 0.20043796
0.056499086 0.22213759 -0.10135377 -0.10786874 -0.017167076 0.16506612 0.08645717 0.06129648
0.16985016 0.266658 0.07123255 -0.015223995 -0.06179902 0.0185067 -0.32858944 -0.029790781
0.05134811 -0.04794476 -0.065389775 0.0044012633 -0.0273281 0.0932963 -0.040830567 -0.17822477
0.081992574 0.33232245 0.21527852 0.065187216 -0.12618063 0.085333325 -0.35648748 -0.37099674
0.04737269 -0.13225415 0.04569527 -0.115853965 -0.035437748 -0.022933275 0.06506562 0.09455535
0.30800673 -0.35699388 0.15166858 -0.039253924 -0.24255629 -0.098807044 0.18781792 -0.02718053
-0.120624766 0.33207938 -0.26716283 0.3749031 0.08783957 -0.063884616 0.08311938 -0.21564384
-0.09947989 -0.031735815 0.031242523 -0.13420355 -0.02660093 -0.11428069 -0.0045420034 0.054661818
0.009205957 -0.011960961 -0.08677701 -0.05479456 -0.043961845 -0.15771385 -0.11642029 -0.20983566
-0.3192232 0.08357265 0.052520525 -0.0704245 0.15405855 -0.08477672 0.05760085 0.1792731
-0.20889083 -1.0459455 -0.5855371 0.01052371 -0.19592234 -0.2902018 -0.45308498 -1.0967488
-0.36554107 0.31113994 0.2903928 0.09026738 0.14193085 0.016030213 0.03759252 -0.16872735
-0.02151937 0.25097692 -0.13809614 -0.17270939 -0.061666694 -0.049515553 -0.08052462 -0.4071798
0.056153566 0.28973225 -0.2517825 -0.13528544 -0.045712423 0.2430951 -0.06880319 0.28518867
0.18338643 -0.3197932 0.33550006 -0.13913172 0.117541224 -0.6110724 -0.14034286 -0.011896491
00000000: 8a69 57be 159b 8fbe 1ed5 613d 8456 203c
00000010: 6172 abbe a30b c13e 9625 3cbd 35d3 bbbc
00000020: 3dcf 353e 57f0 9e3e 1001 d63d e017 273d
00000030: a9ef f4bd 6acd 37be 1f4b a8be a008 ba3d
00000040: 3127 bebe e80c 563e 4cc5 8abe b5a2 d2bb
00000050: 068d 5cbd 14ee c1bd c584 943e 7d3a 8abd
00000060: 45b6 ef3d 04cb 113e 8232 a7be 5293 40be
00000070: e482 a23b 289f 9b3c 5e7d 8bbc a876 8d3e
00000080: 3c04 95be a03b 403e 3029 ad3e 745d 82bd
00000090: 2ba8 27be eb49 883e f30c f23c e78b 45be
000000a0: 7233 5d3d d131 acbe 056e 653e b08d 79be
000000b0: ca39 463d f8ac e13d 96ee abbe cd6a a6be
000000c0: 91a4 e13d a5b5 97be 5dd7 80bc 41af 22bd
000000d0: 2be5 32bd 4fdf 92bd 9b4a 59bd d372 c9bc
000000e0: 2b2e 39be b43e 5f3c ffb8 953d 8ad0 1c3e
000000f0: d961 04be ecd2 da3d 9f34 5f3e 1124 2ebc
00000100: 4f78 16bc f945 e93d d531 53be de6e b5b9
00000110: f4a0 ad3c f529 f83c 0b81 c53d 8b33 30be
00000120: 840d cf3d 0249 63be c29c 563e 376a efbd
00000130: a889 ecbc a17f 51be fad8 0ebe e53b 35be
00000140: d70f bb39 60ac 9bbd 01df b5bd 7d31 5b3e
00000150: 26ae fbbd eeb0 153d 23c2 47bc ee26 f43a
00000160: 5773 683e e952 42be 4eff 2d3d ed2d 14be
00000170: c49f a63e 7312 203e accb 1f3e 19cb 19be
00000180: 5824 b63d 35df 8d3c 2dd9 fa3d edf2 3a3e
00000190: 43e9 5fbd 7c1b bebc df93 123c 0b97 73be
000001a0: ffbc 75be 5931 0ebe bfc8 ddbe 691a 46be
000001b0: 648f 5cbe 282b 3cbe 577b b23d 9be1 373e
000001c0: b6b2 afbc eec6 9a3d 443b d2bc 197e 9f3e
000001d0: bcf5 6dbe d758 813d ca7f 4abe 410a 4e3e
000001e0: d597 8fbe 735d 993d 1771 7a3e 0b40 88be
000001f0: 8dfd a33e 0451 b1be 8cb1 6abd 5449 2dbe
00000200: 3d42 5ebe 65b7 c63d 2908 eabd 27db a5be
00000210: 55a1 7cbd e689 553e d43c 28bb 9c3f 4d3e
00000220: 966b 673d 0978 633e 9192 cfbd 49ea dcbd
00000230: f8a1 8cbc 1807 293e 7510 b13d 0512 7b3d
00000240: 33ed 2d3e 6687 883e 5fe2 913d 106e 79bc
00000250: f820 7dbd 5d9b 973c e03c a8be cc0b f4bc
00000260: 6552 523d ba61 44bd 13eb 85bd 7938 903b
00000270: 2edf dfbc 2112 bf3d f43d 27bd 8e80 36be
00000280: b9eb a73d 2b26 aa3e f971 5c3e e080 853d
00000290: 7f35 01be 3dc3 ae3d 8785 b6be 49f3 bdbe
000002a0: de09 423d a26d 07be f72a 3b3d d844 edbd
000002b0: 2c27 11bd 90de bbbc 2041 853d 3ca6 c13d
000002c0: 0fb3 9d3e e7c7 b6be 024f 1b3e b9c8 20bd
000002d0: ad60 78be 595b cabd 5753 403e b4a9 debc
000002e0: 1e0a f7bd 4f06 aa3e 91c9 88be 4df3 bf3e
000002f0: 3ce5 b33d f0d5 82bd 7e3a aa3d bdd1 5cbe
00000300: 1dbc cbbd 6afd 01bd 52f0 ff3c a86c 09be
00000310: 32ea d9bc ff0b eabd 16d5 94bb 12e5 5f3d
00000320: 95d4 163c e8f7 43bc 25b8 b1bd 4370 60bd
00000330: 5611 34bd bd7f 21be c36d eebd 29df 56be
00000340: 3971 a3be 2328 ab3d c31f 573d b83a 90bd
00000350: 86c1 1d3e 6b9f adbd deee 6b3d 5e93 373e
00000360: 7ae7 55be 8be1 85bf c2e5 15bf a46b 2c3c
00000370: de9f 48be 5595 94be c1fa e7be 4462 8cbf
00000380: 3328 bbbe bc4d 9f3e 5dae 943e 1bde b83d
00000390: 5256 113e cb51 833c 9dfa 193d ddc6 2cbe
000003a0: 6449 b0bc 0c80 803e 1369 0dbe bbda 30be
000003b0: 3796 7cbd d2d0 4abd 18ea a4bd df79 d0be
000003c0: 4801 663d c957 943e a3e9 80be 4488 0abe
000003d0: f33c 3bbd eced 783e b0e8 8cbd 4004 923e
000003e0: a7c9 3b3e efbb a3be aac6 ab3e 8c78 0ebe
000003f0: 74b9 f03d 3e6f 1cbf 0ab6 0fbe 80e9 42bc

conv_blocks.7.bias f4 [64]
0.12738575 -0.021410385 -0.48783496 0.021159828 -0.1919273 0.05475871 -0.2503381 -0.5530516
-0.2807185 -0.31074178 0.04519334 -0.30888128 -0.19940601 -0.34791172 -0.18551594 -0.21552512
-0.14080803 -0.45584583 -0.27313128 -0.42765412 -0.24700068 -0.24811444 -0.15012315 -0.07844018
-0.14017421 -0.17551032 -0.03313318 -0.38711065 -0.09124388 -0.1708975 -0.09218123 -0.3533363
0.047875907 -0.06403069 -0.31894162 -0.22523034 -0.22441898 -0.0018623447 -0.19880478 -0.03854326
-0.44807416 -0.02049062 -0.17301047 -0.5071702 -0.32456183 -0.23093511 -0.24182428 -0.0002602549
-0.18332048 -0.10218635 -0.4543092 0.13439466 -0.058359973 -0.29315498 -0.73072696 -0.18135513
-0.40013632 -0.27430627 -0.27776086 -0.19550143 -0.56780034 -0.32204565 -0.15686601 -0.36226425
00000000: 6971 023e d564 afbc 81c5 f9be 6057 ad3c
00000010: 9788 44be ab4a 603d 512c 80be ca94 0dbf
00000020: 56ba 8fbe 8c19 9fbe a71c 393d b025 9ebe
00000030: 1731 4cbe 7c21 b2be e4f7 3dbe 9eb2 5cbe
00000040: fb2f 10be a064 e9be ddd7 8bbe 7bf5 dabe
00000050: bfed 7cbe b611 7ebe e2b9 19be 3fa5 a0bd
00000060: d489 0fbe fab8 33be a8b6 07bd 5e33 c6be
00000070: 12de babd c1ff 2ebe 83c9 bcbd 7fe8 b4be
00000080: 8719 443d 8622 83bd 514c a3be c8a2 66be
00000090: 17ce 65be eb19 f4ba 7b93 4bbe 8adf 1dbd
000000a0: fa69 e5be f2db a7bc a829 31be e8d5 01bf
000000b0: f82c a6be 417a 6cbe c9a0 77be d272 88b9
000000c0: 5db8 3bbe 1447 d1bd 379b e8be c19e 093e
000000d0: de0a 6fbd 6918 96be ec10 3bbf 29b5 39be
000000e0: abde ccbe df71 8cbe ac36 8ebe 8731 48be
000000f0: 5d5b 11bf 2be3 a4be 7ca1 20be b37a b9be

conv_blocks.10.weight f4 [64]
1.4808363 1.5744458 1.496188 1.7158867 1.6775807 1.9406928 1.3422936 1.2236947
1.5621319 1.7148868 1.4255276 1.642031 1.8263476 1.1917121 1.5587664 1.5024613
1.7196118 1.714275 1.4130766 1.323298 1.6352253 1.6032095 1.6765964 1.6710838
1.5376287 1.7882708 1.8900237 1.6969835 1.5110304 1.576421 1.5934441 1.5748271
1.482456 1.6983988 1.4584328 1.3281968 1.5899273 1.2584294 1.7016153 1.4678199
1.6603534 1.5315547 1.3992412 1.5646923 2.0229528 1.618307 1.475049 1.5448705
1.8325896 1.4269559 1.4984626 1.6962314 1.8102632 1.522785 1.5331187 1.8288382
1.2402827 1.3783796 1.8976948 1.5813129 1.4646183 1.535047 1.5340799 0.96483743
00000000: 0b8c bd3f 7187 c93f 1783 bf3f 2da2 db3f
00000010: f7ba d63f 9f68 f83f 47d0 ab3f 07a2 9c3f
00000020: f0f3 c73f 6981 db3f b077 b63f 122e d23f
00000030: c2c5 e93f 068a 983f a885 c73f a750 c03f
00000040: 3d1c dc3f 5d6d db3f b2df b43f d461 a93f
00000050: 104f d13f f835 cd3f b69a d63f 13e6 d53f
00000060: 04d1 c43f 0fe6 e43f 4cec f13f c136 d93f
00000070: 7269 c13f 2ac8 c93f faf5 cb3f ef93 c93f
00000080: 1ec1 bd3f 2265 d93f edad ba3f 5a02 aa3f
00000090: bd82 cb3f 3714 a13f 88ce d93f 86e1 bb3f
000000a0: 7686 d43f fc09 c43f 561a b33f d647 c83f
000000b0: 0f78 0140 af24 cf3f 68ce bc3f 51be c53f
000000c0: 4c92 ea3f 7ea6 b63f 9fcd bf3f 1c1e d93f
000000d0: b4b6 e73f 9eea c23f 3c3d c43f 5f17 ea3f
000000e0: 95c1 9e3f be6e b03f aae7 f23f 7668 ca3f
000000f0: 9d78 bb3f 6c7c c43f bb5c c43f 96ff 763f

conv_blocks.10.bias f4 [64]
-0.041088715 -0.012211122 -0.6460903 -0.17873156 0.15126078 -0.08385348 -0.37530315 0.5027244
0.10936642 -0.25284916 -0.13972862 -0.06957113 -0.116518386 0.9578186 -0.20216756 0.015908176
0.16753007 -0.048368096 -0.16906004 0.06970444 0.09584382 -0.46604145 -0.29253376 -0.13671482
-0.122309685 -0.008992589 -0.13264398 -0.42247605 -0.12570961 0.27911806 -0.1276295 0.104039036
-0.17507654 0.14575447 -0.11170533 0.12049924 -0.11073244 1.1231811 0.46422935 -0.28121036
-0.19624138 0.23401907 -0.11725878 -0.0063680885 0.025282726 0.060095295 -0.040518153 -0.09498573
0.39967015 -0.24628696 -0.25412995 0.0019683861 -0.1200241 -0.10743492 0.0048166546 0.14788643
-0.07359975 -0.2654901 -0.24780938 -0.19768369 -0.26054132 -0.16944423 -0.08154748 -0.6057355
00000000: a44c 28bd 2811 48bc 2d66 25bf 6805 37be
00000010: 1be4 1a3e 60bb abbd bc27 c0be 8cb2 003f
00000020: 80fb df3d 7275 81be 0515 0fbe 4f7b 8ebd
00000030: 31a1 eebd 9a33 753f 0305 4fbe dd51 823c
00000040: 018d 2b3e a01d 46bd 131e 2dbe 34c1 8e3d
00000050: c449 c43d fc9c eebe fcc6 95be f8fe 0bbe
00000060: 807d fabd a755 13bc d3d3 07be c84e d8be
00000070: 05ba 00be 90e8 8e3e 4fb1 02be 6b12 d53d
00000080: 4447 33be a940 153e c4c5 e4bd 4ec8 f63d
00000090: b1c7 e2bd 66c4 8f3f 78af ed3e cefa 8fbe
000000a0: 80f3 48be b2a2 6f3e 5f25 f0bd 66ab d0bb
000000b0: b81d cf3c 7c26 763d 5df6 25bd e187 c2bd
000000c0: 91a1 cc3e a632 7cbe 521d 82be 0a00 013b
000000d0: 32cf f5bd d706 dcbd 07d5 9d3b 8a6f 173e
000000e0: 77bb 96bd 52ee 87be bec1 7dbe 986d 4abe
000000f0: ac65 85be ca82 2dbe 5d02 a7bd 7b11 1bbf

conv_blocks.10.running_mean f4 [64]
0.3674456 0.10909163 0.33054382 0.24247731 0.17062525 0.20769161 0.122091845 0.24444018
0.21621369 0.2918008 0.27262044 0.22342376 0.06624696 0.11354981 0.10538517 0.12058094
0.011123743 0.07667396 0.27748713 0.2765859 0.09963903 0.41846898 0.096059814 0.14769554
0.22734909 0.09868501 0.12809412 0.08796359 0.7314958 0.066536225 0.117068134 0.115099534
0.28026327 0.09101642 0.17501754 0.18124253 0.3083364 0.13008422 -0.005637793 0.27599227
0.105152786 0.6139284 0.17821749 0.10539211 0.04905137 0.17132632 0.10163582 0.3698133
0.036866978 0.19704825 0.03176576 0.13247302 0.06884122 0.13551292 0.2263536 0.041891143
-0.0025177924 0.121745035 0.085086815 0.23692366 0.053743303 0.16114053 0.19990829 0.5902422
00000000: d421 bc3e 6f6b df3d 0a3d a93e f94b 783e
00000010: 63b8 2e3e 1cad 543e 4a0b fa3d 874e 7a3e
00000020: 1f67 5d3e ea66 953e e894 8b3e 33c9 643e
00000030: 7cac 873d ce8c e83d 2ed4 d73d 24f3 f63d
00000040: 5c40 363c 3d07 9d3d cb12 8e3e ab9c 8d3e
00000050: 8c0f cc3d 9141 d63e 02bb c43d 803d 173e
00000060: 33ce 683e 5e1b ca3d 1b2b 033e 4126 b43d
00000070: 4f43 3b3f 2544 883d 6bc1 ef3d 4eb9 eb3d
00000080: ab7e 8f3e d166 ba3d cc37 333e a497 393e
00000090: 45de 9d3e cc34 053e 3cbd b8bb dc4e 8d3e
000000a0: 585a d73d 692a 1d3f a57e 363e d2d7 d73d
000000b0: 17ea 483d 2b70 2f3e 7126 d03d 2b58 bd3e
000000c0: d401 173d 04c7 493e d01c 023d 02a7 073e
000000d0: a0fc 8c3d e6c3 0a3e 3dc9 673e 0c96 2b3d
000000e0: 8c01 25bb 7655 f93d ff41 ae3d 1e9c 723e
000000f0: f021 5c3d 0602 253e c2b4 4c3e 1d1a 173f

conv_blocks.10.running_var f4 [64]
1.4566932 0.67364085 1.0238032 0.94356865 0.7865343 0.70583355 0.82948303 1.1788893
0.91370445 1.3588712 0.92903435 0.65191525 0.5959417 0.67529935 0.5981832 0.69396037
0.173152 0.65837955 1.3338068 0.8162156 0.7697022 2.7093742 0.6320458 0.51558787
1.4254622 0.4639112 0.4649269 0.5729693 1.7688013 0.7320812 0.5588081 0.5398093
0.9545925 0.35547635 0.7566174 0.8106681 0.9439602 0.6918339 0.3502649 1.2288561
0.58034164 3.477481 1.1246947 1.2393508 0.5574663 0.9494958 0.7554006 2.5779269
0.59943855 0.59652776 0.31922677 0.690849 0.37743622 0.5099074 1.3840156 0.16124822
0.48228478 0.6973724 0.6049679 0.7769713 0.5528676 1.0167943 1.1603119 3.6215365
00000000: ec74 ba3f ba73 2c3f fc0b 833f b78d 713f
00000010: 505a 493f 82b1 343f 0059 543f d8e5 963f
00000020: 89e8 693f 7eef ad3f 32d5 6d3f ebe3 263f
00000030: a38f 183f 6be0 2c3f 8922 193f 63a7 313f
00000040: c24e 313e 908b 283f 2eba aa3f 81f3 503f
00000050: 340b 453f 6366 2d40 c1cd 213f 91fd 033f
00000060: 8c75 b63f c585 ed3e e60a ee3e 1eae 123f
00000070: 1568 e23f ac69 3b3f 0c0e 0f3f f130 0a3f
00000080: 2d60 743f ff00 b63e aeb1 413f f287 4f3f
00000090: 60a7 713f 071c 313f ec55 b33e 284b 9d3f
000000a0: 4591 143f 0c8f 5e40 fff5 8f3f 0ca3 9e3f
000000b0: 1db6 0e3f 2812 733f ef61 413f c1fc 2440
000000c0: ce74 193f 0bb6 183f b171 a33e 7bdb 303f
000000d0: 523f c13e 4b89 023f 6c27 b13f 411e 253e
000000e0: 08ee f63e ff86 323f 2ddf 1a3f 97e7 463f
000000f0: bb88 0d3f 5126 823f 1a85 943f 41c7 6740

conv_blocks.11.weight f4 [128, 64, 3, 3]
0.16349353 -0.53619576 -0.25105736 0.015648128 -0.0067009693 0.011855617 -0.043827392 0.040180095
0.056213055 -0.060999177 0.17344445 0.13805538 0.2602575 0.33643207 0.024156652 -0.02831204
7.217282e-05 -0.07037867 -0.19059724 0.020817993 -0.18954477 0.31942618 -0.00575623 -0.022161186
0.082825236 0.03599147 0.06291277 -0.11052164 -0.11378967 -0.0059926095 0.17039493 -0.04985085
-0.037998755 0.36638927 -0.14623997 -0.048201747 0.14841953 -0.024273816 0.060533103 -0.50118035
0.09601361 0.022822917 0.10683869 -0.12204599 0.1185476 -0.10283853 -0.37826502 -0.04707965
0.009673653 -0.012599155 -0.06714846 -0.068107605 0.08085182 -0.0026211587 0.27813137 0.051790748
-0.047100313 0.68683815 0.06913366 -0.0032561219 0.13638318 -0.15198578 0.003441305 0.13150145
-0.065659344 0.07345883 -0.03537777 0.023722537 0.08554748 0.1563521 -0.034164544 0.04556152
-0.016423516 -0.17521648 0.09378287 -0.17656831 0.19623806 -0.19258139 0.1051401 -0.05464016
-0.03834467 -0.012863847 0.1379606 -0.20025742 0.13110174 -0.10933435 0.03869269 -0.06847025
0.0014220915 -0.023000166 0.20956907 -0.08260157 0.07150242 0.06478494 -0.35943076 0.05893316
-0.048667658 -0.02305369 -0.004884477 -0.14511395 -0.077898 0.19069907 0.17214116 0.14788541
0.026368089 0.0074786036 -0.080860585 0.051774394 -0.038787767 -0.15762334 -0.10170446 0.13398536
-0.10186825 0.06984507 0.21705024 0.019956678 -0.027539918 0.5289783 -0.19602753 -0.0018407163
-0.10073471 -0.069641784 0.108127624 -0.0314198 0.11568126 0.092501044 0.15802225 -0.11583886
0.10579071 0.20721525 0.15677603 0.038784124 -0.038264055 -0.015797587 0.0046878504 -0.039516192
-0.26624498 0.11089767 0.31748226 0.026929928 0.026510375 -0.03758037 -0.12656708 0.019548045
0.43093967 0.038725518 0.017719362 -0.17483152 0.21210289 -0.19805956 0.03068819 -0.18362667
-0.034579623 0.118215464 -0.22296768 0.2607 0.06791661 0.027089054 0.072251335 -0.15605105
-0.075142294 0.024047038 0.15626116 -0.14937462 0.08675575 0.27192703 -0.07789977 -0.04417071
0.0736987 -0.067414194 -0.02560599 0.18404584 -0.058446895 -0.029489357 -0.5504096 0.25613934
0.07222634 0.08626099 -0.029626172 -0.015187449 -0.03407509 -0.19713572 -0.10090317 -0.23016396
-0.049794912 0.08820491 -0.010543245 -0.029677706 -0.07727381 -0.20915563 -0.09740977 -0.031332623
0.3078828 0.09150897 -0.02853443 -0.1185906 -0.073323004 0.04312659 0.024773832 -0.26523867
-0.26638037 0.16457704 -0.05441193 -0.20391017 -0.07589347 -0.11969727 0.06365729 -0.11564597
0.1705922 -0.011275441 0.29512647 0.31003672 0.069939345 0.032027286 0.29838428 -0.0013039747
-0.073097095 -0.008052456 0.102062844 0.12494666 -0.17173967 -0.03558005 0.095211625 -0.03348164
0.13175483 0.07819606 -0.45013237 0.03979526 0.24712619 0.053010758 0.017958572 -0.043034483
0.019423306 0.033616677 0.06224954 -0.67818916 0.10607598 -0.14908594 -0.06634985 0.007234975
0.067743614 -0.07827848 -0.008114333 -0.012073593 0.1353478 -0.16897199 0.232693 -0.09033632
0.12938781 0.001993154 -0.0277411 -0.01695292 -0.6121387 0.2443094 -0.18226098 0.008108739
00000000: d96a 273e 2044 09bf 978a 80be 8130 803c
00000010: ce93 dbbb 103e 423c 5a84 33bd e293 243d
00000020: a93f 663d 46da 79bd 6c9b 313e 645e 0d3e
00000030: 7940 853e d340 ac3e 2ce4 c53c a7ee e7bc
00000040: 7d5b 9738 b122 90bd ec2b 43be 7f8a aa3c
00000050: 0618 42be d48b a33e c29e bcbb 608b b5bc
00000060: 47a0 a93d cb6b 133d 69d8 803d 2b59 e2bd
00000070: 8f0a e9bd a75d c4bb 027c 2e3e 6830 4cbd
00000080: 95a4 1bbd 6097 bb3e eebf 15be 326f 45bd
00000090: 4afb 173e e2d9 c6bc 8ff1 773d 5b4d 00bf
000000a0: c9a2 c43d 20f7 ba3c 3ece da3d 3ff3 f9bd
000000b0: 16c9 f23d 029d d2bd f4ab c1be 97d6 40bd
000000c0: 3e7e 1e3c b06c 4ebc 2285 89bd 007c 8bbd
000000d0: a495 a53d bfc7 2bbb 3c67 8e3e 8922 543d
000000e0: 42ec 40bd a0d4 2f3f f395 8d3d a964 55bb
000000f0: 08a8 0b3e 29a2 1bbe 8487 613b 51a8 063e
00000100: 6878 86bd 9571 963d 48e8 10bd c455 c23c
00000110: 8433 af3d c41a 203e 1ff0 0bbd b79e 3a3d
00000120: 9c8a 86bc f36b 33be 3c11 c03d 53ce 34be
00000130: a1f2 483e 0e34 45be b153 d73d 5cce 5fbd
00000140: 4d0f 1dbd e3c2 52bc 8b45 0d3e 4810 4dbe
00000150: 893f 063e b0ea dfbd 3a7c 1e3d 213a 8cbd
00000160: 7965 ba3a d86a bcbc 4699 563e 032b a9bd
00000170: dc6f 923d f7ad 843d 4f07 b8be e663 713d
00000180: bd57 47bd 18db bcbc f60d a0bb c098 14be
00000190: fd88 9fbd 9e46 433e c645 303e 466f 173e
000001a0: e401 d83c 130f f53b 3c9a a5bd 6311 543d
000001b0: ecdf 1ebd 0368 21be 6e4a d0bd 7533 093e
000001c0: 4da0 d0bd ef0a 8f3d 6b42 5e3e 307c a33c
000001d0: 659b e1bc 1f6b 073f 71bb 48be 3144 f1ba
000001e0: 004e cebd 5aa0 8ebd 0472 dd3d 0cb2 00bd
000001f0: 4cea ec3d 3071 bd3d 96d0 213e ed3c edbd
00000200: cda8 d83d 3c30 543e e589 203e 1adc 1e3d
00000210: c5ba 1cbd f169 81bc 8a9c 993b bbdb 21bd
00000220: 4351 88be 511e e33d 098d a23e 279c dc3c
00000230: 492c d93c e0ed 19bd cd9a 01be 3923 a03c
00000240: 20a4 dc3e a69e 1e3d 3228 913c 0907 33be
00000250: 8031 593e 20d0 4abe cd65 fb3c a108 3cbe
00000260: 5da3 0dbd f31a f23d a451 64be 787a 853e
00000270: dd17 8b3d dde9 dd3c 82f8 933d d9cb 1fbe
00000280: 34e4 99bd 4bfe c43c ed02 203e a9f5 18be
00000290: 00ad b13d 053a 8b3e ea89 9fbd 59ec 34bd
000002a0: 58ef 963d 7410 8abd a7c3 d1bc 8376 3c3e
000002b0: 0366 6fbd aa93 f1bc a5e7 0cbf b224 833e
000002c0: 67eb 933d 9aa9 b03d 96b2 f2bc c7d4 78bc
000002d0: 5292 0bbd f2dd 49be 52a6 cebd 1ab0 6bbe
000002e0: c0f5 4bbd c7a4 b43d 93bd 2cbc a91e f3bc
000002f0: bb41 9ebd e52c 56be c67e c7bd a356 00bd
00000300: d0a2 9d3e 0e69 bb3d 09c1 e9bc a1df f2bd
00000310: 5f2a 96bd 82a5 303d 7ef2 ca3c 5dcd 87be
00000320: 0263 88be e286 283e 0bdf 5ebd d4cd 50be
00000330: 096e 9bbd d823 f5bd c15e 823d cbd7 ecbd
00000340: b9af 2e3e a1bc 38bc d11a 973e 22bd 9e3e
00000350: 5c3c 8f3d 0b2f 033d d3c5 983e 21ea aaba
00000360: eeb3 95bd 73ee 03bc 5306 d13d 09e4 ff3d
00000370: 86dc 2fbe 63bc 11bd 50fe c23d 0b24 09bd
00000380: bdea 063e 4225 a03d c077 e6be 5b00 233d
00000390: a60e 7d3e cf21 593d db1d 933c ed44 30bd
000003a0: a01d 9f3c a4b1 093d 60f9 7e3d ce9d 2dbf
000003b0: 5d3e d93d fca9 18be 6ee2 87bd 5f13 ed3b
000003c0: 2abd 8a3d 7850 a0bd fbf1 04bc 52d0 45bc
000003d0: 9d98 0a3e fe06 2dbe 1347 6e3e 4002 b9bd
000003e0: 3d7e 043e 939f 023b 4e41 e3bc dae0 8abc
000003f0: 1fb5 1cbf 3e2c 7a3e 9fa2 3abe 84da 043c

conv_blocks.11.bias f4 [128]
-0.00021205102 -0.19598113 -0.25584656 0.07450839 0.06717761 -0.10734622 -0.112181805 0.18365201
0.04741895 -0.056784615 -0.4823793 -1.0315843 -0.104716726 -0.16967815 -0.27327964 0.3034072
-0.30008376 -0.755149 -0.2290768 -0.26525572 -0.4744172 -0.27051273 -0.22366239 -1.4372938
0.43685433 0.07324018 -0.852691 -0.37817994 -0.06266101 -0.15523453 0.15995438 0.18104507
-0.25458372 -0.4817811 -0.18703406 -0.18969949 -0.49907613 -0.44213697 0.35889038 0.11588285
-0.5424498 -0.41421095 -0.27976948 -0.44568288 -0.36202615 -0.09644902 -0.18923162 -0.10725097
-0.4458662 0.06473973 -0.30311894 0.10086314 -0.13755322 0.04128236 0.31904987 0.14282578
-0.12449693 -0.3277191 -0.33331785 0.1376627 -0.91287756 -0.1273009 -0.31074676 -0.09657084
-0.20891902 -0.708856 -0.37829208 -0.046210017 -0.29695377 -0.14164186 -0.4022825 -0.28571907
-0.10128366 1.4733281 -0.65618575 -0.2529072 -0.19243239 0.21298583 -0.17236888 -0.4042177
0.08897252 -0.14181621 -0.05632017 -0.92217344 0.041297637 -0.43190572 -0.66965324 -0.5459049
0.3396976 -0.59169185 -0.21075913 -0.09638304 -0.18140687 -0.32278046 -0.015943337 -0.7789585
0.06742525 -0.5337249 -0.38280392 -0.39044335 -0.21602742 0.043171033 0.17948757 -0.13692048
-0.61015075 -0.13308826 0.0065139844 0.3587299 -0.2802114 -0.0016411975 -0.12462842 -1.3603971
-0.11045746 -0.53950894 -0.44569126 -0.4201346 -0.07437605 -0.69632876 -0.28436452 -0.10536787
0.0018940388 -0.3266747 -0.25324804 -0.102594376 -0.17873402 -1.1238581 -0.06204084 -0.03491222
00000000: 035a 5eb9 47af 48be 52fe 82be db97 983d
00000010: 6a94 893d 56d8 dbbd 93bf e5bd 460f 3c3e
00000020: 5f3a 423d fc96 68bd 6bfa f6be f40a 84bf
00000030: b975 d6bd 1cc0 2dbe 4feb 8bbe 3058 9b3e
00000040: 94a4 99be 7251 41bf 1c93 6abe 99cf 87be
00000050: d0e6 f2be a580 8abe c107 65be 3ef9 b7bf
00000060: 5fab df3e f3fe 953d f549 5abf cda0 c1be
00000070: 6a54 80bd cdf5 1ebe 15cb 233e e163 393e
00000080: cc58 82be 03ac f6be db85 3fbe 9540 42be
00000090: e886 ffbe c75f e2be 7bc0 b73e fd53 ed3d
000000a0: fddd 0abf 7513 d4be f23d 8fbe 8c30 e4be
000000b0: 7e5b b9be 1087 c5bd efc5 41be 66a6 dbbd
000000c0: 9348 e4be 4396 843d 6832 9bbe 5591 ce3d
000000d0: c0da 0cbe b117 293d 815a a33e ec40 123e
000000e0: 3ff8 febd ccca a7be a3a8 aabe 73f7 0c3e
000000f0: 58b2 69bf 2b5b 02be 331a 9fbe efc6 c5bd
00000100: deee 55be 9677 35bf 80af c1be b746 3dbd
00000110: 530a 98be 900a 11be f9f7 cdbe c549 92be
00000120: cf6d cfbd 0496 bc3f cafb 27bf 0d7d 81be
00000130: ff0c 45be f518 5a3e 7881 30be 9ff5 cebe
00000140: 3937 b63d 4538 11be fbaf 66bd 8f13 6cbf
00000150: b627 293d bf22 ddbe 656e 2bbf 6cc0 0bbf
00000160: d8ec ad3e 1e79 17bf 3ed1 57be 7964 c5bd
00000170: b9c2 39be 7b43 a5be 9a9b 82bc d369 47bf
00000180: 4016 8a3d 32a2 08bf e0fe c3be 31e8 c7be
00000190: 4b36 5dbe 1cd4 303d 97cb 373e e234 0cbe
000001a0: d732 1cbf 4a48 08be 4373 d53b 72ab b73e
000001b0: de77 8fbe 731d d7ba 2f3d ffbd 7e21 aebf
000001c0: 8537 e2bd 421d 0abf a531 e4be e21b d7be
000001d0: 7852 98bd 9a42 32bf 3a98 91be 1ccb d7bd
000001e0: 6541 f83a e841 a7be baa9 81be 001d d2bd
000001f0: 0d06 37be 95da 8fbf 891e 7ebd 1e00 0fbd

conv_blocks.14.weight f4 [128]
1.3278849 1.5113968 1.5656261 1.9713098 1.977865 1.4928352 1.5797404 1.6038014
1.9437828 1.4994677 1.4921398 1.3990002 1.65157 1.3186885 1.6111298 1.5230935
2.0114696 1.4824967 1.6104434 1.7342962 1.6613023 1.5456532 1.862945 0.8879207
1.5074799 1.7614161 1.1197212 1.7237782 1.7977664 1.5967193 1.3499658 2.1803834
2.0816283 0.59349424 2.0249758 1.8993901 1.4668602 1.1509845 1.4032297 2.1535525
1.450245 1.5654818 1.5182592 1.6769042 1.4928167 1.6094033 1.477737 1.8125942
1.4065259 1.63272 1.5982612 1.6643373 1.7919334 1.8259898 1.7344822 1.5036055
1.8384364 1.505128 1.4161291 1.508108 0.936618 1.8178283 1.5168722 1.3841066
1.5163736 1.2383891 1.6898354 1.679296 1.5432502 1.3790619 1.5735313 1.666294
1.550852 1.3752048 1.4821924 1.684709 1.4744161 1.5303891 1.8085227 1.6576331
2.137014 2.1131577 1.7206978 1.3257823 2.0543444 1.6019578 1.1216494 1.5312557
1.6159275 0.82036006 2.1464002 2.4220283 1.836833 1.7000172 1.6590223 1.7509551
1.045364 1.3504926 1.686583 1.4309049 2.1178603 2.0526438 1.3232218 1.7731706
1.3986552 1.5262389 1.7063096 0.43654177 1.632644 1.8359654 1.6551838 0.51041055
1.8221874 1.3235989 1.4651376 1.534157 2.2959766 1.4588946 1.7232215 1.7174096
1.760851 1.3753043 1.9276165 1.5345103 1.6792995 1.5280186 1.5188257 1.4361136
00000000: 22f8 a93f 7375 c13f 7066 c83f e153 fc3f
00000010: ae2a fd3f 3915 bf3f ef34 ca3f 5d49 cd3f
00000020: e0cd f83f 8fee bf3f 70fe be3f 7012 b33f
00000030: a566 d33f c9ca a83f 8039 ce3f baf4 c23f
00000040: ebbb 0040 74c2 bd3f 0223 ce3f 6bfd dd3f
00000050: 8ea5 d43f f7d7 c53f fb74 ee3f c54e 633f
00000060: 1af5 c03f 1576 e13f 0653 8f3f c4a4 dc3f
00000070: 361d e63f 4c61 cc3f aecb ac3f 678b 0b40
00000080: 6639 0540 3def 173f 3499 0140 371f f33f
00000090: 13c2 bb3f 7653 933f 089d b33f ced3 0940
000000a0: a1a1 b93f b561 c83f 5156 c23f cca4 d63f
000000b0: 9e14 bf3f ed00 ce3f 7c26 bd3f 1603 e83f
000000c0: 0a09 b43f f8fc d03f d393 cc3f 0109 d53f
000000d0: 135e e53f 09ba e93f 8303 de3f 2576 c03f
000000e0: e251 eb3f 09a8 c03f b843 b53f af09 c13f
000000f0: 32c6 6f3f 99ae e83f de28 c23f 682a b13f
00000100: 8818 c23f 8983 9e3f 874c d83f 2cf3 d63f
00000110: 3989 c53f 1a85 b03f 7969 c93f 1f49 d53f
00000120: 5182 c63f b606 b03f 7bb8 bd3f 8ba4 d73f
00000130: abb9 bc3f cae3 c33f ac7d e73f 522d d43f
00000140: d6c4 0840 fa3d 0740 d33f dc3f 3cb3 a93f
00000150: 617a 0340 f40c cd3f 3592 8f3f 3000 c43f
00000160: b6d6 ce3f 1e03 523f 9f5e 0940 8302 1b40
00000170: 581d eb3f 2a9a d93f d85a d43f 4c1f e03f
00000180: 7dce 853f f1dc ac3f f4e1 d73f e427 b73f
00000190: 068b 0740 845e 0340 555f a93f 41f7 e23f
000001a0: 2207 b33f cc5b c33f 5a68 da3f 6782 df3e
000001b0: 7bfa d03f ea00 eb3f 10dd d33f 44aa 023f
000001c0: 703d e93f b06b a93f a189 bb3f 425f c43f
000001d0: 48f1 1240 0fbd ba3f 8692 dc3f 14d4 db3f
000001e0: 9163 e13f f909 b03f 23bc f63f d56a c43f
000001f0: 49f3 d63f 1d96 c33f e168 c23f 92d2 b73f

conv_blocks.14.bias f4 [128]
0.06277755 -0.079338476 0.057997987 -0.078395784 0.1004818 0.094573855 -0.037385672 0.06973343
0.015084621 0.10777513 0.0891601 -0.07904657 -0.056117736 0.06797425 0.017552514 0.04289764
0.01919715 -0.051323116 0.031386394 0.0014076539 -0.06971942 0.021046137 0.0056550186 -0.0014253204
0.075242475 0.049902014 -0.03267242 -0.08259317 0.13653985 -0.08353623 0.023953434 0.096192166
0.1030017 -0.001580783 0.085492775 0.102053046 -0.03465495 0.06602824 -0.033092726 0.02299745
-0.017007742 0.023580467 -0.08622792 0.20566079 0.009353189 0.17436232 0.12580103 -0.0019856167
-0.059520837 0.040642593 0.1155351 0.11049048 0.055403534 0.06587187 0.05969494 0.14562038
-0.10539808 -0.060354065 -0.0026952974 0.124189235 -0.007424067 0.08079132 0.1394297 -0.04231688
0.0032521419 0.08669748 0.08912839 0.03574813 0.028324027 0.0009895621 -0.010275744 -0.05171478
0.07406836 0.084660545 -0.027310617 0.14043964 0.085807115 0.089271225 0.075282805 0.02261432
0.10861161 0.04497294 0.06455048 -0.016061613 0.04693079 0.14452125 -0.044650607 -0.02727781
0.035787508 -0.058002952 -0.062801175 0.08849345 0.08304926 0.0334855 0.0026160555 -0.080961905
0.04687838 0.094167136 -0.030090878 -0.004627027 -0.031221582 0.07729323 0.011913643 -0.06741191
-0.029808663 0.04980639 -0.023233028 0.019675188 -0.07326916 0.11361938 -0.032606225 0.025954667
-0.041791007 0.06090978 0.024681544 0.055738647 0.15772974 0.02564061 0.0139468545 0.0965068
0.064014286 -0.0038242731 0.10168582 0.04380627 0.04262572 -0.013079237 0.00021241663 -0.042895496
00000000: 8491 803d 367c a2bd 4c8f 6d3d f88d a0bd
00000010: 67c9 cd3d f0af c13d b821 19bd 67d0 8e3d
00000020: 7c25 773c 35b9 dc3d 9299 b63d 2be3 a1bd
00000030: b6db 65bd 1536 8b3d 4aca 8f3c 70b5 2f3d
00000040: 5743 9d3c 3038 52bd 058f 003d 0781 b83a
00000050: 0ec9 8ebd f368 ac3c bc4d b93b d1d1 baba
00000060: ba18 9a3d 0e66 4c3d 84d3 05bd 9c26 a9bd
00000070: 1ad1 0b3e 0b15 abbd fe39 c43c 6600 c53d
00000080: 8ef2 d23d 4732 cfba d616 af3d 3001 d13d
00000090: 59f2 0dbd d039 873d 3d8c 07bd 2665 bc3c
000000a0: d253 8bbc d32b c13c 4498 b0bd be98 523e
000000b0: 1e3e 193c 098c 323e fcd1 003e 1f21 02bb
000000c0: 1fcc 73bd d978 263d ab9d ec3d d548 e23d
000000d0: d1ee 623d d5e7 863d ae82 743d 821d 153e
000000e0: f3da d7bd d335 77bd 96a3 30bb ed56 fe3d
000000f0: 9645 f3bb eb75 a53d a9c6 0e3e 7754 2dbd
00000100: e321 553b 738e b13d f288 b63d a26c 123d
00000110: ca07 e83c 32b4 813a 985b 28bc e1d2 53bd
00000120: 27b1 973d 8262 ad3d 84ba dfbc 69cf 0f3e
00000130: a4bb af3d d5d3 b63d df2d 9a3d ab41 b93c
00000140: c46f de3d 8c35 383d 0b33 843d a593 83bc
00000150: 803a 403d 61fd 133e 8ee3 36bd b775 dfbc
00000160: ec95 123d 8194 6dbd e79d 80bd 0e3c b53d
00000170: bb15 aa3d 1728 093d 2172 2b3b 5bcf a5bd
00000180: 8b03 403d b3da c03d 2581 f6bc 519e 97bb
00000190: 67c4 ffbc ea4b 9e3d 7131 433c 410f 8abd
000001a0: 4c31 f4bc c901 4c3d 3153 bebc dc2d a13c
000001b0: 240e 96bd 47b1 e83d 1b8e 05bd e29e d43c
000001c0: 0c2d 2bbd 897c 793d f330 ca3c 354e 643d
000001d0: e883 213e 420c d23c 5981 643c 5ba5 c53d
000001e0: ec19 833d a8a0 7abb a840 d03d 346e 333d
000001f0: 4f98 2e3d 4c4a 56bc 28bc 5e39 30b3 2fbd

conv_blocks.14.running_mean f4 [128]
1.4321357 -0.6608458 1.8479074 -0.2328112 1.8533303 1.570881 -0.5266681 0.67330045
1.1279833 2.0655792 1.1826193 -0.42563397 -0.6958311 2.5666497 -0.4555544 0.18066381
1.9521863 -0.6344388 1.6173947 0.05868579 -0.6393623 1.0145618 1.171595 0.45464656
1.7291193 0.7116539 -0.03178342 -0.47261545 1.4582822 -0.43562534 2.3256233 1.0048172
1.9136345 0.43352234 1.2305094 1.2022189 1.082779 0.59388006 2.4215837 -0.3724749
-0.60712236 1.7366006 -0.35723603 1.5374727 -0.5733198 0.56274474 0.53408813 1.7563125
-0.7171411 1.7199675 1.0093596 2.0624123 1.5075517 0.09566028 1.607202 1.1816894
-0.76360774 -0.62449634 -0.7395548 0.9668056 0.48346692 2.2598884 0.83685416 -0.37546995
-0.01639741 0.6416161 1.0816407 1.3602096 0.70607233 0.8150899 1.7110839 -0.20086884
1.412462 2.180497 -0.6487583 1.5921333 0.38771906 1.9511521 0.86921716 -0.55401796
1.6987549 1.6071467 0.1483318 -0.44820872 2.1372297 1.7426835 -0.18769161 -0.9680808
1.3479613 0.09278623 -0.23717588 0.90999717 0.25852314 -0.07856593 1.7305305 -0.9198152
2.9069188 0.651437 -0.41132158 1.6046084 1.824394 0.128925 2.1522524 -0.75844866
-0.32288438 0.4471666 -0.22483273 1.6991239 -0.3510333 2.2385242 1.9362403 3.3544784
-0.15773058 0.12826034 -0.42617914 1.7956591 1.2743504 1.9139829 0.8727418 1.2181206
0.393192 -0.34135267 1.6323954 0.04168478 1.6948311 -0.41083577 1.3537142 -0.53875387
00000000: 3950 b73f 312d 29bf 3b88 ec3f 0f66 6ebe
00000010: ed39 ed3f a112 c93f b8d3 06bf 6b5d 2c3f
00000020: c261 903f 7332 0440 1260 973f b2ec d9be
00000030: fd21 32bf fd43 2440 6d3e e9be efff 383e
00000040: 3ee1 f93f 956a 22bf ca06 cf3f 8360 703d
00000050: 3fad 23bf 29dd 813f d3f6 953f 6fc7 e83e
00000060: c853 dd3f f32e 363f 552f 02bd a7fa f1be
00000070: fea8 ba3f 490a dfbe 03d7 1440 da9d 803f
00000080: faf1 f43f a4f6 dd3e 5581 9d3f 4fe2 993f
00000090: 8198 8a3f 8608 183f 3afb 1a40 08b5 bebe
000000a0: 5f6c 1bbf ee48 de3f a4e7 b6be e8cb c43f
000000b0: 16c5 12bf 0a10 103f 00ba 083f d9ce e03f
000000c0: 8f96 37bf e527 dc3f b232 813f 90fe 0340
000000d0: 74f7 c03f 89e9 c33d ccb8 cd3f 9941 973f
000000e0: cc7b 43bf fede 1fbf 7753 3dbf 9280 773f
000000f0: fa88 f73e 03a2 1040 133c 563f 993d c0be
00000100: dc53 86bc f440 243f 3473 8a3f 591b ae3f
00000110: 28c1 343f bba9 503f cc04 db3f 90b0 4dbe
00000120: 8ecb b43f 438d 0b40 0615 26bf 06cb cb3f
00000130: 1d83 c63e 5abf f93f 0485 5e3f 1fd4 0dbf
00000140: cd70 d93f fcb6 cd3f 4be4 173e 9d7b e5be
00000150: 5fc8 0840 4110 df3f 3b32 40be 25d4 77bf
00000160: ff89 ac3f b506 be3d 3cde 72be 93f5 683f
00000170: 255d 843e 2de7 a0bd 0682 dd3f 0279 6bbf
00000180: f50a 3a40 93c4 263f be98 d2be cf63 cd3f
00000190: be85 e93f ea04 043e 81be 0940 b129 42bf
000001a0: 1a51 a5be 05f3 e43e 8d3a 66be e47c d93f
000001b0: a3ba b3be fb43 0f40 b9d6 f73f c6af 5640
000001c0: 2084 21be ae56 033e 2734 dabe 28d8 e53f
000001d0: ea1d a33f 64fd f43f 026c 5f3f 60eb 9b3f
000001e0: 7650 c93e c7c5 aebe 55f2 d03f a9bd 2a3d
000001f0: 3af0 d83f 1159 d2be 8246 ad3f c6eb 09bf

conv_blocks.14.running_var f4 [128]
13.394893 2.9522178 19.44788 6.6130376 32.320038 18.009542 2.8641386 13.03379
14.565702 19.70458 27.695955 7.731106 3.7535648 22.583319 3.8610737 7.735507
23.70853 3.3681264 14.971367 7.03185 2.7745633 11.369372 14.214977 4.7646666
16.304535 12.857397 4.7497735 3.192355 13.693847 2.6106038 21.618881 17.384094
24.561071 4.476134 19.433386 17.08545 12.395729 9.404403 20.930132 6.468818
2.7014408 15.647175 4.3444767 17.859222 2.5484831 10.291373 12.376212 18.074583
4.302452 19.945297 13.895288 19.300192 25.675936 9.256522 17.265434 27.11825
3.2362485 3.2413263 2.1077514 14.035254 5.4331226 23.724363 11.255503 2.1691916
6.1973634 10.758326 32.599407 18.466099 24.68936 13.66007 18.434938 5.406815
12.144476 18.016525 1.7298313 20.859613 8.188292 16.475979 10.553856 5.342396
19.837 23.436823 8.802651 4.3566465 36.472515 16.79683 2.8489635 2.8026261
13.510198 3.4814038 11.062371 18.287312 13.540103 6.153549 15.140249 7.251826
26.037556 11.416018 4.9612403 14.695174 21.236616 13.049651 18.5508 4.7860656
2.9940858 8.941511 3.5608065 8.954534 2.633237 26.582167 20.348639 16.60589
5.683952 6.3414893 3.775372 16.159504 26.23236 21.12582 11.442431 16.05727
11.847581 2.8660874 19.010347 14.115552 20.333582 3.8777916 12.383307 3.8381133
00000000: 7b51 5641 23f1 3c40 4295 9b41 019e d340
00000010: b847 0142 8b13 9041 0c4e 3740 678a 5041
00000020: 1e0d 6941 fba2 9d41 5191 dd41 3865 f740
00000030: 683a 7040 a3aa b441 d51b 7740 4689 f740
00000040: 12ab bd41 628f 5740 b88a 6f41 ea04 e140
00000050: 7292 3140 f3e8 3541 8c70 6341 2678 9840
00000060: b06f 8241 e6b7 4d41 25fe 9740 8b4f 4c40
00000070: ff19 5b41 2214 2740 78f3 ac41 a012 8b41
00000080: 137d c441 7d3c 8f40 9377 9b41 00af 8841
00000090: e854 4641 6f78 1641 e970 a741 8f00 cf40
000000a0: 68e4 2c40 d45a 7a41 f405 8b40 b0df 8e41
000000b0: 591a 2340 77a9 2441 f704 4641 bf98 9041
000000c0: b0ad 8940 f88f 9f41 1a53 5e41 cb66 9a41
000000d0: 5168 cd41 b71a 1441 9c1f 8a41 2df2 d841
000000e0: b21e 4f40 e471 4f40 66e5 0640 6690 6041
000000f0: 24dc ad40 7fcb bd41 8a16 3441 09d4 0a40
00000100: cd50 c640 1a22 2c41 cb65 0242 92ba 9341
00000110: cf83 c541 a68f 5a41 c17a 9341 a104 ad40
00000120: c64f 4241 d821 9041 1d6b dd3f 7de0 a641
00000130: 3e03 0341 cece 8341 98dc 2841 e8f4 aa40
00000140: 2db2 9e41 9d7e bb41 a9d7 0c41 a669 8b40
00000150: dbe3 1142 e85f 8641 6b55 3640 3a5e 3340
00000160: c529 5841 52cf 5e40 79ff 3041 6a4c 9241
00000170: 43a4 5841 e0e9 c440 763e 7241 f50e e840
00000180: ea4c d041 02a8 3641 7bc2 9e40 6f1f 6b41
00000190: 97e4 a941 5fcb 5041 0a68 9441 7327 9940
000001a0: 1a9f 3f40 6e10 0f41 41e4 6340 c545 0f41
000001b0: f486 2840 47a8 d441 03ca a241 ddd8 8441
000001c0: efe2 b540 7bed ca40 b29f 7140 aa46 8141
000001d0: e0db d141 ae01 a941 3314 3741 4a75 8041
000001e0: b18f 3d41 fa6d 3740 3115 9841 4dd9 6141
000001f0: 2dab a241 bd2d 7840 0722 4641 a6a3 7540
